…
{'CARGO_PLANE': 1116, 'HELICOPTER': 380, 'SMALL_CAR': 4499, 'BUS': 4472, 'TRUCK': 4515, 'MOTORBOAT': 1109, 'FISHING_VESSEL': 1344, 'DUMP_TRUCK': 1121, 'EXCAVATOR': 1294, 'BUILDING': 4478, 'STORAGE_TANK': 1316, 'SHIPPING_CONTAINER': 1389}
Training samples oversampled to:  {'CARGO_PLANE': 1116, 'HELICOPTER': 380, 'SMALL_CAR': 4499, 'BUS': 4472, 'TRUCK': 4515, 'MOTORBOAT': 1109, 'FISHING_VESSEL': 1344, 'DUMP_TRUCK': 1121, 'EXCAVATOR': 1294, 'BUILDING': 4478, 'STORAGE_TANK': 1316, 'SHIPPING_CONTAINER': 1389}
Load model
Model: "FFNN_DATAAUGM_opt_adam_lr_0001_lyrs_3_batch_size_64_time_202211100639"
_________________________________________________________________
Layer (type)                 Output Shape              Param #   
=================================================================
flatten (Flatten)            (None, 150528)            0         
_________________________________________________________________
activation (Activation)      (None, 150528)            0         
_________________________________________________________________
dropout (Dropout)            (None, 150528)            0         
_________________________________________________________________
dense (Dense)                (None, 100)               15052900  
_________________________________________________________________
activation_1 (Activation)    (None, 100)               0         
_________________________________________________________________
dropout_1 (Dropout)          (None, 100)               0         
_________________________________________________________________
dense_1 (Dense)              (None, 50)                5050      
_________________________________________________________________
activation_2 (Activation)    (None, 50)                0         
_________________________________________________________________
dropout_2 (Dropout)          (None, 50)                0         
_________________________________________________________________
dense_2 (Dense)              (None, 12)                612       
_________________________________________________________________
activation_3 (Activation)    (None, 12)                0         
=================================================================
Total params: 15,058,562
Trainable params: 15,058,562
Non-trainable params: 0
_________________________________________________________________
Started training at:  2022-11-10 06:39:43.095746
Epoch 1/20
Epoch started on batch 0 at:  2022-11-10 06:39:43.173367
2022-11-10 06:39:46.375910: I tensorflow/core/profiler/lib/profiler_session.cc:136] Profiler session initializing.
…
