…
2022-11-11 07:39:43.992596: I tensorflow/stream_executor/cuda/cuda_blas.cc:1838] TensorFloat-32 will be used for the matrix multiplication. This will only be logged once.
Running a A100 32G job
Model path:  models/xview_recognition/FFNN_DATAAUGM_opt_sgd_lr_0001_lyrs_3_batch_size_64_time_202211101049/FFNN_DATAAUGM_opt_sgd_lr_0001_lyrs_3_batch_size_64_time_202211101049.hdf5
Load model
Model: "FFNN_DATAAUGM_opt_sgd_lr_0001_lyrs_3_batch_size_64_time_202211101049"
_________________________________________________________________
Layer (type)                 Output Shape              Param #   
=================================================================
flatten (Flatten)            (None, 150528)            0         
_________________________________________________________________
activation (Activation)      (None, 150528)            0         
_________________________________________________________________
dropout (Dropout)            (None, 150528)            0         
_________________________________________________________________
dense (Dense)                (None, 100)               15052900  
_________________________________________________________________
activation_1 (Activation)    (None, 100)               0         
_________________________________________________________________
dropout_1 (Dropout)          (None, 100)               0         
_________________________________________________________________
dense_1 (Dense)              (None, 50)                5050      
_________________________________________________________________
activation_2 (Activation)    (None, 50)                0         
_________________________________________________________________
dropout_2 (Dropout)          (None, 50)                0         
_________________________________________________________________
dense_2 (Dense)              (None, 12)                612       
_________________________________________________________________
activation_3 (Activation)    (None, 12)                0         
=================================================================
Total params: 15,058,562
Trainable params: 15,058,562
Non-trainable params: 0
_________________________________________________________________
Total num of images: 52667
Predicting image 0
Converting to tensor
Running GC...
Predicting image 1
Converting to tensor
Running GC...
Predicting image 2
Converting to tensor
Running GC...
…
