…
2022-11-11 17:55:57.849536: I tensorflow/stream_executor/platform/default/dso_loader.cc:49] Successfully opened dynamic library libcublasLt.so.11
2022-11-11 17:55:57.880389: I tensorflow/stream_executor/cuda/cuda_blas.cc:1838] TensorFloat-32 will be used for the matrix multiplication. This will only be logged once.
Parsing parameter file from  model_configs/ffnn/training_job_config.json
Load model
Model: "FFNN_DATAAUGM_opt_adam_lr_0001_lyrs_2_batch_size_64_time_202211111755"
_________________________________________________________________
Layer (type)                 Output Shape              Param #   
=================================================================
flatten (Flatten)            (None, 150528)            0         
_________________________________________________________________
activation (Activation)      (None, 150528)            0         
_________________________________________________________________
dropout (Dropout)            (None, 150528)            0         
_________________________________________________________________
dense (Dense)                (None, 100)               15052900  
_________________________________________________________________
activation_1 (Activation)    (None, 100)               0         
_________________________________________________________________
dropout_1 (Dropout)          (None, 100)               0         
_________________________________________________________________
dense_1 (Dense)              (None, 12)                1212      
_________________________________________________________________
activation_2 (Activation)    (None, 12)                0         
=================================================================
Total params: 15,054,112
Trainable params: 15,054,112
Non-trainable params: 0
_________________________________________________________________
{'CARGO_PLANE': 628, 'HELICOPTER': 49, 'SMALL_CAR': 1000, 'BUS': 1000, 'TRUCK': 1000, 'MOTORBOAT': 1000, 'FISHING_VESSEL': 736, 'DUMP_TRUCK': 1000, 'EXCAVATOR': 706, 'BUILDING': 1000, 'STORAGE_TANK': 1000, 'SHIPPING_CONTAINER': 1000}
…
